2026-01-07 17:53:26,617 - CDistNet - INFO - model parameter:-------
Trainable: 65.499528 M
2026-01-07 17:53:26,618 - CDistNet - INFO - model struct:-------
DataParallel(
  (module): CDistNet(
    (visual_branch): VIS_Pre(
      (transform): TPS_SpatialTransformerNetwork(
        (LocalizationNetwork): LocalizationNetwork(
          (conv): Sequential(
            (0): Conv2d(1, 64, kernel_size=(3, 3), stride=(1, 1), padding=(1, 1), bias=False)
            (1): BatchNorm2d(64, eps=1e-05, momentum=0.1, affine=True, track_running_stats=True)
            (2): ReLU(inplace=True)
            (3): MaxPool2d(kernel_size=2, stride=2, padding=0, dilation=1, ceil_mode=False)
            (4): Conv2d(64, 128, kernel_size=(3, 3), stride=(1, 1), padding=(1, 1), bias=False)
            (5): BatchNorm2d(128, eps=1e-05, momentum=0.1, affine=True, track_running_stats=True)
            (6): ReLU(inplace=True)
            (7): MaxPool2d(kernel_size=2, stride=2, padding=0, dilation=1, ceil_mode=False)
            (8): Conv2d(128, 256, kernel_size=(3, 3), stride=(1, 1), padding=(1, 1), bias=False)
            (9): BatchNorm2d(256, eps=1e-05, momentum=0.1, affine=True, track_running_stats=True)
            (10): ReLU(inplace=True)
            (11): MaxPool2d(kernel_size=2, stride=2, padding=0, dilation=1, ceil_mode=False)
            (12): Conv2d(256, 512, kernel_size=(3, 3), stride=(1, 1), padding=(1, 1), bias=False)
            (13): BatchNorm2d(512, eps=1e-05, momentum=0.1, affine=True, track_running_stats=True)
            (14): ReLU(inplace=True)
            (15): AdaptiveAvgPool2d(output_size=1)
          )
          (localization_fc1): Sequential(
            (0): Linear(in_features=512, out_features=256, bias=True)
            (1): ReLU(inplace=True)
          )
          (localization_fc2): Linear(in_features=256, out_features=40, bias=True)
        )
        (GridGenerator): GridGenerator()
      )
      (backbone): ABI_ResNet(
        (conv1): Conv2d(1, 32, kernel_size=(3, 3), stride=(1, 1), padding=(1, 1), bias=False)
        (bn1): BatchNorm2d(32, eps=1e-05, momentum=0.1, affine=True, track_running_stats=True)
        (relu): ReLU(inplace=True)
        (convbnrelu): ConvBnRelu(
          (conv): Conv2d(512, 512, kernel_size=(3, 3), stride=(2, 2), padding=(1, 1))
          (bn): BatchNorm2d(512, eps=1e-05, momentum=0.1, affine=True, track_running_stats=True)
          (relu): ReLU(inplace=True)
        )
        (layer1): Sequential(
          (0): BasicBlock(
            (conv1): Conv2d(32, 32, kernel_size=(1, 1), stride=(1, 1), bias=False)
            (bn1): BatchNorm2d(32, eps=1e-05, momentum=0.1, affine=True, track_running_stats=True)
            (relu): ReLU(inplace=True)
            (conv2): Conv2d(32, 32, kernel_size=(3, 3), stride=(2, 2), padding=(1, 1), bias=False)
            (bn2): BatchNorm2d(32, eps=1e-05, momentum=0.1, affine=True, track_running_stats=True)
            (downsample): Sequential(
              (0): Conv2d(32, 32, kernel_size=(1, 1), stride=(2, 2), bias=False)
              (1): BatchNorm2d(32, eps=1e-05, momentum=0.1, affine=True, track_running_stats=True)
            )
          )
          (1): BasicBlock(
            (conv1): Conv2d(32, 32, kernel_size=(1, 1), stride=(1, 1), bias=False)
            (bn1): BatchNorm2d(32, eps=1e-05, momentum=0.1, affine=True, track_running_stats=True)
            (relu): ReLU(inplace=True)
            (conv2): Conv2d(32, 32, kernel_size=(3, 3), stride=(1, 1), padding=(1, 1), bias=False)
            (bn2): BatchNorm2d(32, eps=1e-05, momentum=0.1, affine=True, track_running_stats=True)
          )
          (2): BasicBlock(
            (conv1): Conv2d(32, 32, kernel_size=(1, 1), stride=(1, 1), bias=False)
            (bn1): BatchNorm2d(32, eps=1e-05, momentum=0.1, affine=True, track_running_stats=True)
            (relu): ReLU(inplace=True)
            (conv2): Conv2d(32, 32, kernel_size=(3, 3), stride=(1, 1), padding=(1, 1), bias=False)
            (bn2): BatchNorm2d(32, eps=1e-05, momentum=0.1, affine=True, track_running_stats=True)
          )
        )
        (layer2): Sequential(
          (0): BasicBlock(
            (conv1): Conv2d(32, 64, kernel_size=(1, 1), stride=(1, 1), bias=False)
            (bn1): BatchNorm2d(64, eps=1e-05, momentum=0.1, affine=True, track_running_stats=True)
            (relu): ReLU(inplace=True)
            (conv2): Conv2d(64, 64, kernel_size=(3, 3), stride=(1, 1), padding=(1, 1), bias=False)
            (bn2): BatchNorm2d(64, eps=1e-05, momentum=0.1, affine=True, track_running_stats=True)
            (downsample): Sequential(
              (0): Conv2d(32, 64, kernel_size=(1, 1), stride=(1, 1), bias=False)
              (1): BatchNorm2d(64, eps=1e-05, momentum=0.1, affine=True, track_running_stats=True)
            )
          )
          (1): BasicBlock(
            (conv1): Conv2d(64, 64, kernel_size=(1, 1), stride=(1, 1), bias=False)
            (bn1): BatchNorm2d(64, eps=1e-05, momentum=0.1, affine=True, track_running_stats=True)
            (relu): ReLU(inplace=True)
            (conv2): Conv2d(64, 64, kernel_size=(3, 3), stride=(1, 1), padding=(1, 1), bias=False)
            (bn2): BatchNorm2d(64, eps=1e-05, momentum=0.1, affine=True, track_running_stats=True)
          )
          (2): BasicBlock(
            (conv1): Conv2d(64, 64, kernel_size=(1, 1), stride=(1, 1), bias=False)
            (bn1): BatchNorm2d(64, eps=1e-05, momentum=0.1, affine=True, track_running_stats=True)
            (relu): ReLU(inplace=True)
            (conv2): Conv2d(64, 64, kernel_size=(3, 3), stride=(1, 1), padding=(1, 1), bias=False)
            (bn2): BatchNorm2d(64, eps=1e-05, momentum=0.1, affine=True, track_running_stats=True)
          )
          (3): BasicBlock(
            (conv1): Conv2d(64, 64, kernel_size=(1, 1), stride=(1, 1), bias=False)
            (bn1): BatchNorm2d(64, eps=1e-05, momentum=0.1, affine=True, track_running_stats=True)
            (relu): ReLU(inplace=True)
            (conv2): Conv2d(64, 64, kernel_size=(3, 3), stride=(1, 1), padding=(1, 1), bias=False)
            (bn2): BatchNorm2d(64, eps=1e-05, momentum=0.1, affine=True, track_running_stats=True)
          )
        )
        (layer3): Sequential(
          (0): BasicBlock(
            (conv1): Conv2d(64, 128, kernel_size=(1, 1), stride=(1, 1), bias=False)
            (bn1): BatchNorm2d(128, eps=1e-05, momentum=0.1, affine=True, track_running_stats=True)
            (relu): ReLU(inplace=True)
            (conv2): Conv2d(128, 128, kernel_size=(3, 3), stride=(2, 2), padding=(1, 1), bias=False)
            (bn2): BatchNorm2d(128, eps=1e-05, momentum=0.1, affine=True, track_running_stats=True)
            (downsample): Sequential(
              (0): Conv2d(64, 128, kernel_size=(1, 1), stride=(2, 2), bias=False)
              (1): BatchNorm2d(128, eps=1e-05, momentum=0.1, affine=True, track_running_stats=True)
            )
          )
          (1): BasicBlock(
            (conv1): Conv2d(128, 128, kernel_size=(1, 1), stride=(1, 1), bias=False)
            (bn1): BatchNorm2d(128, eps=1e-05, momentum=0.1, affine=True, track_running_stats=True)
            (relu): ReLU(inplace=True)
            (conv2): Conv2d(128, 128, kernel_size=(3, 3), stride=(1, 1), padding=(1, 1), bias=False)
            (bn2): BatchNorm2d(128, eps=1e-05, momentum=0.1, affine=True, track_running_stats=True)
          )
          (2): BasicBlock(
            (conv1): Conv2d(128, 128, kernel_size=(1, 1), stride=(1, 1), bias=False)
            (bn1): BatchNorm2d(128, eps=1e-05, momentum=0.1, affine=True, track_running_stats=True)
            (relu): ReLU(inplace=True)
            (conv2): Conv2d(128, 128, kernel_size=(3, 3), stride=(1, 1), padding=(1, 1), bias=False)
            (bn2): BatchNorm2d(128, eps=1e-05, momentum=0.1, affine=True, track_running_stats=True)
          )
          (3): BasicBlock(
            (conv1): Conv2d(128, 128, kernel_size=(1, 1), stride=(1, 1), bias=False)
            (bn1): BatchNorm2d(128, eps=1e-05, momentum=0.1, affine=True, track_running_stats=True)
            (relu): ReLU(inplace=True)
            (conv2): Conv2d(128, 128, kernel_size=(3, 3), stride=(1, 1), padding=(1, 1), bias=False)
            (bn2): BatchNorm2d(128, eps=1e-05, momentum=0.1, affine=True, track_running_stats=True)
          )
          (4): BasicBlock(
            (conv1): Conv2d(128, 128, kernel_size=(1, 1), stride=(1, 1), bias=False)
            (bn1): BatchNorm2d(128, eps=1e-05, momentum=0.1, affine=True, track_running_stats=True)
            (relu): ReLU(inplace=True)
            (conv2): Conv2d(128, 128, kernel_size=(3, 3), stride=(1, 1), padding=(1, 1), bias=False)
            (bn2): BatchNorm2d(128, eps=1e-05, momentum=0.1, affine=True, track_running_stats=True)
          )
          (5): BasicBlock(
            (conv1): Conv2d(128, 128, kernel_size=(1, 1), stride=(1, 1), bias=False)
            (bn1): BatchNorm2d(128, eps=1e-05, momentum=0.1, affine=True, track_running_stats=True)
            (relu): ReLU(inplace=True)
            (conv2): Conv2d(128, 128, kernel_size=(3, 3), stride=(1, 1), padding=(1, 1), bias=False)
            (bn2): BatchNorm2d(128, eps=1e-05, momentum=0.1, affine=True, track_running_stats=True)
          )
        )
        (layer4): Sequential(
          (0): BasicBlock(
            (conv1): Conv2d(128, 256, kernel_size=(1, 1), stride=(1, 1), bias=False)
            (bn1): BatchNorm2d(256, eps=1e-05, momentum=0.1, affine=True, track_running_stats=True)
            (relu): ReLU(inplace=True)
            (conv2): Conv2d(256, 256, kernel_size=(3, 3), stride=(1, 1), padding=(1, 1), bias=False)
            (bn2): BatchNorm2d(256, eps=1e-05, momentum=0.1, affine=True, track_running_stats=True)
            (downsample): Sequential(
              (0): Conv2d(128, 256, kernel_size=(1, 1), stride=(1, 1), bias=False)
              (1): BatchNorm2d(256, eps=1e-05, momentum=0.1, affine=True, track_running_stats=True)
            )
          )
          (1): BasicBlock(
            (conv1): Conv2d(256, 256, kernel_size=(1, 1), stride=(1, 1), bias=False)
            (bn1): BatchNorm2d(256, eps=1e-05, momentum=0.1, affine=True, track_running_stats=True)
            (relu): ReLU(inplace=True)
            (conv2): Conv2d(256, 256, kernel_size=(3, 3), stride=(1, 1), padding=(1, 1), bias=False)
            (bn2): BatchNorm2d(256, eps=1e-05, momentum=0.1, affine=True, track_running_stats=True)
          )
          (2): BasicBlock(
            (conv1): Conv2d(256, 256, kernel_size=(1, 1), stride=(1, 1), bias=False)
            (bn1): BatchNorm2d(256, eps=1e-05, momentum=0.1, affine=True, track_running_stats=True)
            (relu): ReLU(inplace=True)
            (conv2): Conv2d(256, 256, kernel_size=(3, 3), stride=(1, 1), padding=(1, 1), bias=False)
            (bn2): BatchNorm2d(256, eps=1e-05, momentum=0.1, affine=True, track_running_stats=True)
          )
          (3): BasicBlock(
            (conv1): Conv2d(256, 256, kernel_size=(1, 1), stride=(1, 1), bias=False)
            (bn1): BatchNorm2d(256, eps=1e-05, momentum=0.1, affine=True, track_running_stats=True)
            (relu): ReLU(inplace=True)
            (conv2): Conv2d(256, 256, kernel_size=(3, 3), stride=(1, 1), padding=(1, 1), bias=False)
            (bn2): BatchNorm2d(256, eps=1e-05, momentum=0.1, affine=True, track_running_stats=True)
          )
          (4): BasicBlock(
            (conv1): Conv2d(256, 256, kernel_size=(1, 1), stride=(1, 1), bias=False)
            (bn1): BatchNorm2d(256, eps=1e-05, momentum=0.1, affine=True, track_running_stats=True)
            (relu): ReLU(inplace=True)
            (conv2): Conv2d(256, 256, kernel_size=(3, 3), stride=(1, 1), padding=(1, 1), bias=False)
            (bn2): BatchNorm2d(256, eps=1e-05, momentum=0.1, affine=True, track_running_stats=True)
          )
          (5): BasicBlock(
            (conv1): Conv2d(256, 256, kernel_size=(1, 1), stride=(1, 1), bias=False)
            (bn1): BatchNorm2d(256, eps=1e-05, momentum=0.1, affine=True, track_running_stats=True)
            (relu): ReLU(inplace=True)
            (conv2): Conv2d(256, 256, kernel_size=(3, 3), stride=(1, 1), padding=(1, 1), bias=False)
            (bn2): BatchNorm2d(256, eps=1e-05, momentum=0.1, affine=True, track_running_stats=True)
          )
        )
        (layer5): Sequential(
          (0): BasicBlock(
            (conv1): Conv2d(256, 512, kernel_size=(1, 1), stride=(1, 1), bias=False)
            (bn1): BatchNorm2d(512, eps=1e-05, momentum=0.1, affine=True, track_running_stats=True)
            (relu): ReLU(inplace=True)
            (conv2): Conv2d(512, 512, kernel_size=(3, 3), stride=(1, 1), padding=(1, 1), bias=False)
            (bn2): BatchNorm2d(512, eps=1e-05, momentum=0.1, affine=True, track_running_stats=True)
            (downsample): Sequential(
              (0): Conv2d(256, 512, kernel_size=(1, 1), stride=(1, 1), bias=False)
              (1): BatchNorm2d(512, eps=1e-05, momentum=0.1, affine=True, track_running_stats=True)
            )
          )
          (1): BasicBlock(
            (conv1): Conv2d(512, 512, kernel_size=(1, 1), stride=(1, 1), bias=False)
            (bn1): BatchNorm2d(512, eps=1e-05, momentum=0.1, affine=True, track_running_stats=True)
            (relu): ReLU(inplace=True)
            (conv2): Conv2d(512, 512, kernel_size=(3, 3), stride=(1, 1), padding=(1, 1), bias=False)
            (bn2): BatchNorm2d(512, eps=1e-05, momentum=0.1, affine=True, track_running_stats=True)
          )
          (2): BasicBlock(
            (conv1): Conv2d(512, 512, kernel_size=(1, 1), stride=(1, 1), bias=False)
            (bn1): BatchNorm2d(512, eps=1e-05, momentum=0.1, affine=True, track_running_stats=True)
            (relu): ReLU(inplace=True)
            (conv2): Conv2d(512, 512, kernel_size=(3, 3), stride=(1, 1), padding=(1, 1), bias=False)
            (bn2): BatchNorm2d(512, eps=1e-05, momentum=0.1, affine=True, track_running_stats=True)
          )
        )
      )
      (positional_encoding): PositionalEncoding(
        (dropout): Dropout(p=0.2, inplace=False)
      )
      (trans_encoder): TransformerEncoder(
        (layers): ModuleList(
          (0-2): 3 x TransformerEncoderLayer(
            (self_attn): MultiheadAttention(
              (out_proj): Linear(in_features=512, out_features=512, bias=True)
              (conv1): Conv2d(512, 512, kernel_size=(1, 1), stride=(1, 1))
              (conv2): Conv2d(512, 1024, kernel_size=(1, 1), stride=(1, 1))
              (conv3): Conv2d(512, 1536, kernel_size=(1, 1), stride=(1, 1))
            )
            (conv1): Conv2d(512, 2048, kernel_size=(1, 1), stride=(1, 1))
            (conv2): Conv2d(2048, 512, kernel_size=(1, 1), stride=(1, 1))
            (norm1): LayerNorm((512,), eps=1e-05, elementwise_affine=True)
            (norm2): LayerNorm((512,), eps=1e-05, elementwise_affine=True)
            (dropout1): Dropout(p=0.2, inplace=False)
            (dropout2): Dropout(p=0.2, inplace=False)
          )
        )
        (pos_encoding): PositionalEncoding(
          (dropout): Dropout(p=0.0, inplace=False)
        )
      )
    )
    (semantic_branch): SEM_Pre(
      (embedding): Embeddings(
        (embedding): Embedding(81, 512, padding_idx=0)
      )
      (positional_encoding): PositionalEncoding(
        (dropout): Dropout(p=0.2, inplace=False)
      )
    )
    (positional_branch): POS_Pre(
      (pos_encoding): PositionalEncoding(
        (dropout): Dropout(p=0.2, inplace=False)
      )
      (linear1): Linear(in_features=512, out_features=512, bias=True)
      (linear2): Linear(in_features=512, out_features=512, bias=True)
      (norm2): LayerNorm((512,), eps=1e-05, elementwise_affine=True)
    )
    (mdcdp): MDCDP(
      (layers_pos): ModuleList(
        (0-2): 3 x CommonAttentionLayer(
          (multihead_attn): MultiheadAttention(
            (out_proj): Linear(in_features=512, out_features=512, bias=True)
            (conv1): Conv2d(512, 512, kernel_size=(1, 1), stride=(1, 1))
            (conv2): Conv2d(512, 1024, kernel_size=(1, 1), stride=(1, 1))
            (conv3): Conv2d(512, 1536, kernel_size=(1, 1), stride=(1, 1))
          )
          (linear1): Linear(in_features=512, out_features=1024, bias=True)
          (dropout): Dropout(p=0.1, inplace=False)
          (linear2): Linear(in_features=1024, out_features=512, bias=True)
          (norm2): LayerNorm((512,), eps=1e-05, elementwise_affine=True)
          (norm3): LayerNorm((512,), eps=1e-05, elementwise_affine=True)
          (dropout2): Dropout(p=0.2, inplace=False)
          (dropout3): Dropout(p=0.2, inplace=False)
        )
      )
      (layers2): ModuleList(
        (0-2): 3 x CommonAttentionLayer(
          (multihead_attn): MultiheadAttention(
            (out_proj): Linear(in_features=512, out_features=512, bias=True)
            (conv1): Conv2d(512, 512, kernel_size=(1, 1), stride=(1, 1))
            (conv2): Conv2d(512, 1024, kernel_size=(1, 1), stride=(1, 1))
            (conv3): Conv2d(512, 1536, kernel_size=(1, 1), stride=(1, 1))
          )
          (linear1): Linear(in_features=512, out_features=1024, bias=True)
          (dropout): Dropout(p=0.1, inplace=False)
          (linear2): Linear(in_features=1024, out_features=512, bias=True)
          (norm2): LayerNorm((512,), eps=1e-05, elementwise_affine=True)
          (norm3): LayerNorm((512,), eps=1e-05, elementwise_affine=True)
          (dropout2): Dropout(p=0.2, inplace=False)
          (dropout3): Dropout(p=0.2, inplace=False)
        )
      )
      (layers3): ModuleList(
        (0-2): 3 x CommonAttentionLayer(
          (multihead_attn): MultiheadAttention(
            (out_proj): Linear(in_features=512, out_features=512, bias=True)
            (conv1): Conv2d(512, 512, kernel_size=(1, 1), stride=(1, 1))
            (conv2): Conv2d(512, 1024, kernel_size=(1, 1), stride=(1, 1))
            (conv3): Conv2d(512, 1536, kernel_size=(1, 1), stride=(1, 1))
          )
          (linear1): Linear(in_features=512, out_features=1024, bias=True)
          (dropout): Dropout(p=0.1, inplace=False)
          (linear2): Linear(in_features=1024, out_features=512, bias=True)
          (norm2): LayerNorm((512,), eps=1e-05, elementwise_affine=True)
          (norm3): LayerNorm((512,), eps=1e-05, elementwise_affine=True)
          (dropout2): Dropout(p=0.2, inplace=False)
          (dropout3): Dropout(p=0.2, inplace=False)
        )
      )
      (dynamic_shared_fusion): DSF(
        (w_att): Linear(in_features=1024, out_features=512, bias=True)
      )
    )
    (tgt_word_prj): Linear(in_features=512, out_features=81, bias=False)
  )
)
2026-01-07 17:53:28,257 - CDistNet - INFO - epoch: 2  iter: 0/30008  loss:  1.017163  lr:  0.000180  eta: 13:39:24
2026-01-07 17:53:29,823 - CDistNet - INFO - eval_loss:0.8892,eval_acc:0.9573--------

2026-01-07 17:53:29,823 - CDistNet - INFO - Saving model: best_acc in epoch:2,iteration:0
2026-01-07 17:53:30,050 - CDistNet - INFO - Saved!
2026-01-07 17:53:30,050 - CDistNet - INFO - Saving last epoch model in epoch:2,iteration:0
…
